experiments/conv_vae/checkpoints/best_model/vae_best.pth (torch, 744232 bytes, 63 tensors)

encoder.0.weight f4 [32, 1, 3, 3]
00000000: e6dc 97be 33b2 7bbe a3cd 053c 1f35 08be
00000010: c120 70bc 2704 8f3e fb01 913e cfc9 0c3e
00000020: 5800 e83d 8daa 6a3e efb0 c83e 6ed1 9e3e
00000030: baef b23d 7f47 693e aae6 9c3e a960 17be
00000040: 178b b8bd 83e4 82be ccfe 2dbe 3fa2 45bd
00000050: d248 123e 05c9 00be 6917 98be a90e 79be
00000060: 1fcb 50be 3f17 5cbe 183a b3bd bd20 cd3e
00000070: c950 c83e d378 9dbe 1fb6 6e3d e4dd f3bc
00000080: d4fa 0bbe 727f acbd 00c5 883e 67b7 143e
00000090: 3d86 5fbd 7ffd 16be 1adf e7bc 61f3 87bd
000000a0: d03b afbe 8043 bebc 5e2c 34be e5c5 b53d
000000b0: 57ac 3abd 2957 b8bd 09a3 a2be aa61 01be
000000c0: 8e8b dabd d128 d1bc 1e0a b8bd 51dd ebbd
000000d0: d7e9 19be 37f2 edbd 1ecb 993e 3dd2 a23e
000000e0: a8e1 42be afe6 f53d 782b cfbd e51b 01be
000000f0: 86d3 843e 2044 76be 7a2a 26be ceaa 98be
00000100: f05b 86be 39d2 fcbd 8dd0 9dbd 9302 a43e
00000110: f793 8a3e 1fdf 96bd 8dfa 703e d61c be3d
00000120: abc5 953d ade1 493e edea 9a3d cecd 603e
00000130: c263 893e 8e07 d6bd 2cff 2cbc 9001 853e
00000140: fdf2 9abe 253d 24bd 9354 ee3d 0495 9dbe
00000150: 39c9 2ebd eaa0 01bd 4616 b53d 4292 e0bd
00000160: 79ee 92be 41fb cfbd de0f 2b3e 669e 143e
00000170: 33ef 7bbc a7ab 303d 1820 333e 7241 913e
00000180: 5707 e03d b857 df3d 440e 04bd a2f4 913e
00000190: 6158 913d e976 53be e9f2 d53c 443b 833d
000001a0: 302a 323e 8a24 633e 67b0 7f3e a369 9abe
000001b0: 25f5 a43e 88de 833e b060 46bc 7e6d 443d
000001c0: 6931 8bbe 57be 72be 6c44 0c3e 8cf2 2bbe
000001d0: 9c74 cf3c 1a85 093a cdf2 fd3d 3e6c 713e
000001e0: 70f5 753e 3d78 443e 69d0 48be 4829 7c3d
000001f0: 0ac4 5c3e 8edf 1dbe 050f 5f3e 7158 5a3e
00000200: 3403 c83d a4d4 7bbd 9037 6b3d 9a92 efbd
00000210: 22e7 6c3e a6f0 2b3e ce7d d4bd 44ce 373e
00000220: b273 8c3e 1dca 31be edb9 57be 2f48 283d
00000230: d7cc 5b3e 7fcf 973e 1733 573e ce7e b93e
00000240: c769 a03e cbb1 81be 4429 8abe 7fdf 5e3e
00000250: c6c5 9a3e cbd7 f93d 75ca 06be 4839 f6bc
00000260: 4009 a33e af66 8c3e 91be 1f3e 0677 bd3d
00000270: 9f9f 803d 9cff 893e bdd7 593e e7ea 82be
00000280: 1c5b 233e 2b66 7c3e 1af4 b73c 5c46 89be
00000290: be2a b2be f53a 303d aa5d 85be 3ce4 adbb
000002a0: 0be8 0b3e 177c 82be 1990 84bd 6af3 0f3e
000002b0: 99af c43e b78a 33be aa96 663d 52cf 953e
000002c0: 45b4 2c3e d364 78be fcbc 05be 6833 a0be
000002d0: b060 233e 6f56 b03e a679 f0bd 9029 a13d
000002e0: 4ba6 0abd 2f00 85be 6548 af3e 9806 45be
000002f0: ba9e 383e 09bd 903e 4f5a 8e3d f343 973e
00000300: 62a4 2cbe 1bfd b0bc 0425 53be 74ef 783e
00000310: 3922 313e b7f2 e6bd 14ca 713d 8ed3 ac3c
00000320: 6ad4 933e 4e1f 50be 33e5 e5bd a0d6 61be
00000330: 98a1 f73d 084c 35be 751d 4cbe 7625 5e3e
00000340: 2c20 4fbd 3344 253e a4cf 2f3e bc26 dbbd
00000350: 814b 97be f3c1 483d f13b 41be f8f8 473d
00000360: 3bc1 8b3d 3dda dcbd 7306 04be 32db c8bc
00000370: 76d3 acbe 20f6 a1bd 5ea7 22be 0ed3 a5be
00000380: fc58 5fbe cd48 373e 666d 6f3e 8303 6abd
00000390: 2bad 05be 553f 8b3e 493d 8f3e 4eaa 0d3e
000003a0: 2cff ff3d 47c5 9abe adda b23e 4f2a 2fbe
000003b0: c408 5b3e a074 61be fd47 9dbe eee8 c1bc
000003c0: d9ea 3b3d d918 f9bd 30c9 29be 0129 563e
000003d0: bbc7 0a3e b905 443e 34f2 b8bd 6931 633e
000003e0: e7bb 1b3e d1aa c43c a1fb 483e f321 1fbe
000003f0: 9399 3d3e 675e 813e f650 de3d 3235 3c3e
-0.2966072 -0.24579696 0.008166703 -0.13301514 -0.014656247 0.27932855 0.28321823 0.13748859
0.113281906 0.22916622 0.3919749 0.31019157 0.087371305 0.2278118 0.30644733 -0.14782967
-0.09010904 -0.25564966 -0.16991729 -0.048250433 0.14285591 -0.12576683 -0.2970536 -0.24321999
-0.20389985 -0.21493243 -0.08751315 0.4006404 0.39124134 -0.30756244 0.058279153 -0.029768892
-0.13669902 -0.08422746 0.267128 0.14523087 -0.05457138 -0.14745139 -0.028304625 -0.06638218
-0.3422532 -0.023225546 -0.1759505 0.08875636 -0.045574512 -0.090009995 -0.3176501 -0.12634912
-0.10671149 -0.025532158 -0.08986305 -0.11516822 -0.15030609 -0.116184644 0.3003778 0.31801024
-0.19031394 0.1200689 -0.10115713 -0.12608297 0.2594263 -0.24049425 -0.16227141 -0.29817814
-0.26242018 -0.12344784 -0.077057935 0.32033214 0.27066013 -0.07366776 0.23533078 0.09282844
0.07313093 0.19714995 0.0756434 0.21953508 0.26833922 -0.1045066 -0.010558885 0.25977755
-0.3026351 -0.040097374 0.11637225 -0.30777752 -0.04267237 -0.0316476 0.08842139 -0.109653965
-0.28697565 -0.10155345 0.16705272 0.14513549 -0.015376854 0.04313245 0.17492712 0.28370243
0.109389 0.10905403 -0.032240167 0.28506953 0.07096935 -0.2065083 0.026116805 0.064077884
0.17398906 0.22181907 0.24969636 -0.3015872 0.3221828 0.25755715 -0.012108013 0.047955982
-0.27186134 -0.23705421 0.13697976 -0.16791743 0.025324158 0.0005245969 0.12399826 0.23576447
0.24019408 0.19186492 -0.19610752 0.061562806 0.21559158 -0.1541731 0.21783073 0.213228
0.09766236 -0.061482087 0.057426035 -0.11697884 0.23135045 0.16791019 -0.10375558 0.17949778
0.2743202 -0.17362256 -0.21067019 0.041084465 0.21464859 0.29650494 0.21015583 0.36229557
0.31330702 -0.25330958 -0.26984608 0.21764944 0.30229014 0.12199362 -0.13163169 -0.03005661
0.31842995 0.2742209 0.15600039 0.092512175 0.06280445 0.26952827 0.21273704 -0.2556984
0.15952724 0.24648349 0.022455264 -0.26811492 -0.34798235 0.043024976 -0.26048023 -0.0053067487
0.13662736 -0.25485298 -0.06472797 0.14057699 0.3841522 -0.17533384 0.05629603 0.29259735
0.16865642 -0.24257211 -0.13060373 -0.3128922 0.15954852 0.34440944 -0.117419526 0.078692555
-0.033849996 -0.25976703 0.3423492 -0.19240797 0.180293 0.28269222 0.06950819 0.2954403
-0.16859582 -0.021605065 -0.20619589 0.24310094 0.17298211 -0.11276763 0.059030607 0.02109697
0.28872997 -0.20324442 -0.11225357 -0.22054529 0.120913684 -0.17704785 -0.19933112 0.21693978
-0.05056779 0.16139297 0.17169052 -0.10700747 -0.29549792 0.04901309 -0.18870522 0.04882142
0.06823965 -0.10783813 -0.12893085 -0.024518583 -0.33755082 -0.07908273 -0.15884158 -0.32387584
-0.21811289 0.17898865 0.23381576 -0.057132255 -0.1305434 0.27196756 0.27976444 0.13834497
0.12499842 -0.30228636 0.3493246 -0.17105983 0.21390063 -0.22017145 -0.30718985 -0.02367064
0.045878265 -0.121629424 -0.16580653 0.20914079 0.13552754 0.19142808 -0.090305716 0.22186817
0.15208398 0.024007233 0.19627239 -0.15540294 0.18515615 0.25267336 0.10855286 0.18379667

encoder.0.bias f4 [32]
00000000: 4e6d 87be 520c d7bd 1a2e 043e fc4a 54be
00000010: 7bc7 37be 86fb 5fbe ffd0 943e 0186 a53e
00000020: 8171 ddbd c1a4 11be eb10 edbd 07a6 28bd
00000030: 007a 213e 3ae5 04be dbce 993d d40b 8d3e
00000040: 5297 523d a5d8 babd 7daa 62be 83be 8b3e
00000050: 2c1a 263d 3058 eabd 8efa 34bd 86e6 4d3e
00000060: 1412 373e fa40 a7be a9b3 f03d 09e3 5e3e
00000070: 5880 903e b95f 823e 0232 a9be 0008 8bbe
-0.2645058 -0.10500397 0.12908211 -0.2073173 -0.1794719 -0.21873292 0.290657 0.323288
-0.10812665 -0.14223005 -0.115754925 -0.04117396 0.15769196 -0.12978068 0.07510158 0.27548087
0.05141384 -0.09123353 -0.22135349 0.27293786 0.040552303 -0.11442602 -0.04418426 0.20107469
0.1787799 -0.3266676 0.117530175 0.21766295 0.2822292 0.25463656 -0.33045965 -0.2715454

encoder.1.weight f4 [32]
00000000: fc66 853f 8fee 813f f42e 793f 6b3f 7b3f
00000010: 72db 7b3f a36c 793f 1881 8c3f f2ae 853f
00000020: 46ff 803f e6c5 743f f71d 813f d1f1 823f
00000030: 4eb6 8f3f 28a8 7d3f 64ea 803f 1e9f 753f
00000040: ac77 643f e52d 803f 9aac 783f 1241 813f
00000050: 3be2 743f aa77 743f 7eff 723f 1dab 7c3f
00000060: aa96 763f c39d 7a3f 9910 6f3f 291f 813f
00000070: 7b8d 813f 5fbf 793f 75c7 8a3f 0ed5 823f
1.0422053 1.0150927 0.9733727 0.98143643 0.9838172 0.9743139 1.0976896 1.0444014
1.0077903 0.9561447 1.008727 1.0230047 1.122751 0.9908471 1.007153 0.9594592
0.89245105 1.0014006 0.9713837 1.0097983 0.956577 0.9549509 0.949211 0.986986
0.96323645 0.97896975 0.933847 1.0087634 1.0121301 0.97557634 1.084212 1.0221269

encoder.1.bias f4 [32]
00000000: a411 10bd 3725 a4bd 76a5 6dbc 2916 62bd
00000010: dbbd e4bb 3fa8 52bc dc21 ebbd 8046 53bc
00000020: 8820 ddbd 5f22 6fbc 12e1 68bd 85dd c2bd
00000030: b4f2 d8bd 16e6 a1bd 5703 88bd edda 2abd
00000040: 4a16 2bbd 108b afbc 41c9 b7bb 2b79 5dbd
00000050: d67a dfbd 2102 80bd 0d94 e5bc 69d3 18bd
00000060: 5a1c c2bc 9eab 82bd bad7 6bbc 8b41 81bd
00000070: e6f3 a7bd b0ac aebd c4b6 33bd 921a 93bd
-0.035173073 -0.08014911 -0.014504781 -0.055196915 -0.0069806403 -0.012857496 -0.114810675 -0.0128952265
-0.107972205 -0.014595597 -0.05685527 -0.09514908 -0.10593167 -0.079052135 -0.06641262 -0.04171269
-0.041769303 -0.021428615 -0.005608708 -0.054070633 -0.10912101 -0.06250406 -0.028024698 -0.03731099
-0.02369516 -0.0638039 -0.014394695 -0.063113295 -0.08200817 -0.08529031 -0.04387547 -0.07182802

encoder.1.running_mean f4 [32]
00000000: b43f 7dbe 047f 083d 64e4 0abd 5c22 ecbd
00000010: ed10 91be 601b bcbe f4b3 a03e fe21 ab3e
00000020: 66fa a2bc cc72 71be f5f9 523c 8f8a 0f3d
00000030: c413 2f3e 0dc3 12bd 5008 2b3e bff7 dc3e
00000040: 1569 033e 740a 8b3d c42d b4be 78c5 973e
00000050: 7c7f d93d 8079 2bbd cf6c cbbd 09ca 4e3e
00000060: ca40 f73b 03d8 6bbe 29c0 853d f59c aa3e
00000070: 52e3 c53e c76c b83e 87cd aabe 117f 7ebe
-0.24731332 0.033324257 -0.033909217 -0.11529991 -0.28333226 -0.36739635 0.31387293 0.3342437
-0.01989479 -0.23578948 0.012876977 0.03504425 0.17097384 -0.035830546 0.1670239 0.43157765
0.12833054 0.06789103 -0.35191166 0.29642844 0.10620019 -0.04186392 -0.09932863 0.20194258
0.0075455653 -0.2303162 0.06530792 0.33322874 0.38649994 0.3602049 -0.3335993 -0.2485316

encoder.1.running_var f4 [32]
00000000: 2c33 013d 8ce6 e43d 8dc6 e03d 8e96 393d
00000010: f769 3f3d 485d aa3d b6cb 133d 763f 063d
00000020: ab51 4f3d 8d1f 0e3d 59b6 873d c4d0 133d
00000030: 7857 b33c 72fe 3b3d 2042 1e3d bec6 c13d
00000040: edb9 023d 4687 d33d 7b0b a33d b42e eb3c
00000050: bbc8 e93c ec60 cd3c ff39 b93c 7a10 433c
00000060: 0fe8 003e 9c53 453d acea cd3c a522 6f3d
00000070: 2c4f 553d d6e8 4f3d 5a4c 3b3c 8d0e d63c
0.031542942 0.11176786 0.109753706 0.045309596 0.046731915 0.08318573 0.036082946 0.032775365
0.050614994 0.034698058 0.06626577 0.036087766 0.021892294 0.045896955 0.03863728 0.09461735
0.031915594 0.10328536 0.07961174 0.028708793 0.028538099 0.02507063 0.022610663 0.011905784
0.12588523 0.04817544 0.025136314 0.05838265 0.052077457 0.05075916 0.011431778 0.026129985

encoder.3.weight f4 [64, 32, 3, 3]
00000000: 1c16 1a3d 6479 79bd ba21 16bc 288d 4cbc
00000010: c581 953d 3fa7 3a3c ab22 373c 596b ef3c
00000020: 43ab 763c 6862 25bd 92b0 5fbd 2a60 e23b
00000030: 7516 debc 91ae e7bb a11a 8cbc 7ebd d0bd
00000040: 492f 14bd fa79 61bb 0e39 44bd 40e2 24bd
00000050: c907 e03c 3bcf 42bd 87cc a4bc c533 44bd
00000060: 71bb 20bd 633d fe3c e4c2 76bc 286e f53c
00000070: e4af 133d 6e20 1e3d 0b27 143d 3a53 443d
00000080: 24a9 0e3d aa9d 6f3d 2b95 96bd 4727 6bbc
00000090: 503a 123d 3337 ebb8 23e6 a23c 0f32 023d
000000a0: 5b52 6dbc 9db5 42bd 5ae7 a6bc 3171 383d
000000b0: 9cdd 783d bd1b 24bc 091e 0ebd a6c6 3cbb
000000c0: ddba 27bd 5f95 57bc b392 213b d033 3e3c
000000d0: abb2 663c 2a01 b3bc ef2c d23c dd89 243d
000000e0: 0f9c 0b3b 64be 433c 7a50 953d 021a 30bd
000000f0: b7f5 abbc 4ce8 d8bd 4755 11bc 18d0 0ebd
00000100: 7330 bfbb da03 e03c 6283 9fbc 9ecf 913d
00000110: 79d4 8dbc fa28 543d ea5d b33c 4e9d 12bd
00000120: 294a adbc 1b0b 003c 1351 3abc 65e3 d1bc
00000130: 2555 89bc 7e18 273d 105f 073d bd9d 13bd
00000140: b7fc 323d d469 39bc a52d 60bd 065b 1a3d
00000150: 95ff 943c e194 83bd 5599 2cbd e3eb c1bc
00000160: 1d3e 21bd 3345 ec3c 512a c43c 03b6 93bc
00000170: 47c5 edbb 1c59 2bbb 70cd 26bd 8af5 9b3c
00000180: e930 5fbd 97e3 23bd d7c8 733d e960 1b3d
00000190: feb6 6abb 05cb 433c ec4e 533d 6863 b7bd
000001a0: 806c 8e3c e732 193d dbd0 3cbc fdf3 06bd
000001b0: dd09 38bb fac4 a3bc 2fd2 873c 3862 33bd
000001c0: 15bf 5fbc 156b 8a3c d623 5a3c 9ab7 a9bd
000001d0: ff5e 06bd 1125 74bc f16d 0dbd 03be a43b
000001e0: b932 f6bc da9e b0bd eece 08bd 79e9 90bc
000001f0: b5f4 6dbd 96c8 d2bc cab7 d23b 0b09 fc3b
00000200: ce6a 313d 35dc 893c dd85 60bd fc37 0a3c
00000210: 597c d0bc 0596 d8bd ba7b 12bd 19e2 3abd
00000220: b53f b3bb 893d 10bd 5306 a5bd 6008 4dbd
00000230: c56f 69bd b3e0 c63c c89e 583c 935c 8ebc
00000240: e3a8 413c 1907 0ebc cf3b bc3c bcd3 d2bc
00000250: c2d3 ab3c 0a36 1fbc 0662 793d 18ad 4f3d
00000260: a479 b1bc 4d6b 54bd a1c7 21bd ea24 b5bc
00000270: 2686 9ebd 52ea bebc e3ef eabc 2229 b8bc
00000280: 1360 48bd c761 be3b bb49 823c 55f8 313d
00000290: dfeb 173d 46fb 4ebd b499 8a3c 90bc 2d3d
000002a0: 6124 53bb 63a0 95bc ac5c 35bc 204d 04bd
000002b0: 3a6d e13b 1378 33bd 1bb2 213d d90d 6e3d
000002c0: 02e5 a0bc 210b 5c3d d21d abbd 1eea 4fbc
000002d0: 2338 a43c 7734 e13b 1492 13bd b071 31bd
000002e0: 2b73 2f3d 0e9b b4bc 5461 b13c a380 f7bd
000002f0: bd71 e13c 7fc7 26bd 8696 ca3b 839e 3fbc
00000300: 02c7 21bd c8af 02bd 5a0b acbc ae47 4b3c
00000310: 0011 8dbc c68c b83c 260e d93c c601 bdbc
00000320: e237 c23b e9cc c33c 2f47 973d b571 a93c
00000330: 5076 1d3c d617 bd3c 18a5 693c 2f8a 25bd
00000340: f53b f7bc 76f9 a3bc 4f83 12bd feb3 e2bb
00000350: ef09 3bbd 31b7 1c3c 8ded aa3d 34af 32bd
00000360: 0019 303d 866c 77bc 77f0 39bd 18f8 3cbd
00000370: 16df 003d e5eb d8bc e7d1 3f3d d5ce 3e3d
00000380: 6eac 473c 4d13 873d 51cd 9c3c ccf9 8d3c
00000390: 5639 e93c 902e 97bd 759c 233d 8fac 8fbb
000003a0: b31f 20bd d868 a5bb 20ea 2abd 68d0 843d
000003b0: 2be3 9e3c 8fe8 913c a0ab 583d 3faf 123d
000003c0: f89f 5d3d b14c 2b3c d218 cabc cbcc a2ba
000003d0: 464b 563d d5a5 b3ba 1e6d 8d3c 605a 773b
000003e0: 69b3 fbbc 7f77 54bd 604b 5abc 1102 b4bc
000003f0: b4a4 26bc 8cea da3c 736c 1c3d e88f 0dbd
0.03761874 -0.060906783 -0.0091633145 -0.012484826 0.07300142 0.011392414 0.011177699 0.029225992
0.01505548 -0.04037705 -0.05461175 0.0069084363 -0.027110318 -0.0070703705 -0.017102541 -0.10192393
-0.036177907 -0.003440498 -0.047905974 -0.04025483 0.027347462 -0.04756091 -0.020117057 -0.047900934
-0.039241258 0.03103513 -0.015061114 0.029959753 0.036056414 0.038605146 0.036170047 0.047930934
0.034829274 0.05849997 -0.0735267 -0.014352626 0.035700142 -0.00011215955 0.019885128 0.03178602
-0.014484967 -0.04753648 -0.020373989 0.045029823 0.06075822 -0.010016379 -0.034696613 -0.0028804927
-0.04094969 -0.013158171 0.002465409 0.011609033 0.014080684 -0.021851141 0.025656192 0.04017054
0.0021302735 0.011947248 0.0729074 -0.042993553 -0.02099119 -0.10591182 -0.008870429 -0.034866422
-0.005834633 0.027345587 -0.019471828 0.07119678 -0.017313229 0.05179689 0.021895368 -0.03579455
-0.021153526 0.007815148 -0.011371869 -0.025621125 -0.016764233 0.040794842 0.033049643 -0.036039103
0.04369804 -0.011316735 -0.05473103 0.037684463 0.018188277 -0.06424881 -0.042138416 -0.02367205
-0.039365876 0.02884159 0.02394596 -0.018031126 -0.0072561833 -0.0026145643 -0.040723264 0.01903798
-0.054490004 -0.04001197 0.059517708 0.037934218 -0.0035814638 0.011950259 0.051588938 -0.08954507
0.017385721 0.03740206 -0.011524404 -0.03294753 -0.002808205 -0.019991387 0.016579716 -0.04379484
-0.013656397 0.016896764 0.013314208 -0.08286972 -0.03280544 -0.014901415 -0.034528676 0.005027534
-0.030053483 -0.086240485 -0.03340047 -0.017689453 -0.0580947 -0.025730412 0.006430601 0.0076915077
0.043314748 0.016828636 -0.054815162 0.008436199 -0.025449919 -0.10575489 -0.035762526 -0.04562578
-0.005470241 -0.035214934 -0.08057847 -0.050056815 -0.056991357 0.024277067 0.01322145 -0.017378127
0.011820051 -0.008668684 0.022977738 -0.025735728 0.020974997 -0.009717474 0.060884498 0.050702184
-0.021664448 -0.051860142 -0.03949702 -0.022112329 -0.077404305 -0.023305092 -0.02867884 -0.022480551
-0.04891975 0.005809996 0.015904298 0.04344972 0.03709018 -0.0505326 0.016918994 0.042416155
-0.0032217728 -0.018264955 -0.011069458 -0.032300115 0.006879476 -0.043815684 0.039476495 0.058118675
-0.01964045 0.05372155 -0.08355297 -0.012690095 0.0200463 0.0068727094 -0.036027983 -0.04332131
0.042834442 -0.022046592 0.021652855 -0.120850824 0.027520055 -0.040717598 0.0061824946 -0.011695507
-0.03949643 -0.03190592 -0.021001507 0.0124072265 -0.01722002 0.022528064 0.026496004 -0.023072135
0.005927072 0.02390142 0.07386624 0.020684103 0.009610727 0.023082655 0.014260553 -0.040414985
-0.030179957 -0.020016413 -0.035769757 -0.0069184294 -0.04566377 0.009565161 0.083460905 -0.043624118
0.04299259 -0.015101558 -0.04539534 -0.04613504 0.03146275 -0.02647967 0.046831038 0.04658397
0.012187107 0.06595478 0.019140871 0.017331026 0.028469723 -0.07381928 0.03994413 -0.0043845843
-0.03909273 -0.0050478987 -0.041727185 0.06485063 0.019395432 0.017811088 0.05289805 0.03581166
0.054107636 0.010455296 -0.024670038 -0.0012420652 0.05231788 -0.0013706038 0.017263945 0.0037743077
-0.030725198 -0.051871773 -0.013323635 -0.021973642 -0.010171104 0.026723169 0.038189363 -0.034561068

encoder.3.bias f4 [64]
00000000: 4221 38bd c49a 523d 4ac5 473d 6c84 1c3d
00000010: 1367 f13c 9401 143c f018 433d 18d8 2cbb
00000020: 4810 6ebd bb09 583d e0ce 303d 3e53 0b3d
00000030: 2da2 403c 013f 82bb 3950 6c3d 9de5 073d
00000040: 5744 45bd 10c9 fbbb 16be e73c 530a 1b3d
00000050: 61d3 243d cc77 91bc 0707 263d 088a fdbc
00000060: 3e04 6dbb 19df 41bd 8a88 a33b d054 6f3c
00000070: 36e9 613d 85f0 803c efb8 47bd 42b8 143d
00000080: 301a 1d3d 00c3 163c 6ee7 033d 6f79 06bd
00000090: d38a 9f3c fd46 d5bc 1d09 0c3d 6e78 edbc
000000a0: b3ac bd3c 258d 2fbd bcc7 813c 82e6 02bc
000000b0: 1280 52b9 e929 2a3d 56db babc 4e77 693c
000000c0: b417 093a 614f af3c e3ff 14bd 97f8 b0bb
000000d0: 393f 073c 04c5 5cbd cc38 21bc 952a 633d
000000e0: 8835 5c3d 281b 133d 4e1a 85bc 5809 c8bc
000000f0: da44 4e3d b44e f5bb 1e41 4ebd 7b92 363d
-0.044953592 0.051417127 0.048772134 0.038212225 0.029468095 0.009033579 0.047631204 -0.002637392
-0.058120996 0.052743655 0.04316604 0.034014933 0.011757416 -0.003974796 0.057693694 0.03317796
-0.048160877 -0.0076838806 0.028288882 0.037851643 0.04024065 -0.017757319 0.040534046 -0.030949607
-0.0036165859 -0.047331903 0.004990642 0.014607623 0.055154048 0.015739689 -0.04876035 0.036308534
0.038355052 0.009201765 0.03220313 -0.03283065 0.019475376 -0.026034826 0.03418838 -0.02898809
0.023153638 -0.042859215 0.015842311 -0.007989528 -0.0002007487 0.041543875 -0.022809666 0.014249636
0.00052296673 0.021400155 -0.036376845 -0.005400728 0.00825482 -0.053898826 -0.009840202 0.05546053
0.05376199 0.03591457 -0.016247895 -0.024418518 0.05035863 -0.007486189 -0.05035507 0.04457329

encoder.4.weight f4 [64]
00000000: e5f9 3537 613e d839 8a6f 6939 ffd9 3738
00000010: ded5 8ab7 3dcd 013a 3c35 ca39 3ae2 bc39
00000020: 618a 083a d332 fab8 9a2b bb39 b2e9 7939
00000030: 264d 273a 0ced c239 5cac b0b8 1510 dc39
00000040: 88ba d539 56c4 5839 064c d339 ddf6 1c3a
00000050: 0785 3139 8f6b 0d3a a63a 7239 58dd ec39
00000060: fe20 8639 52ec fe38 e0d2 a639 3e91 1339
00000070: 22f0 58b8 7084 7539 0d97 6c39 d020 c9b7
00000080: 6c8e e3b8 2d63 113a 68be 14b9 cee0 5c39
00000090: 5e92 ec39 a650 ef36 e6b5 58b8 eddb b939
000000a0: 2dd4 f838 5f8a be38 f82f 2d37 ab9c e639
000000b0: 46de 33b8 4936 163a 58b1 9e39 a872 f9b8
000000c0: 6d23 8a39 519d 5637 e4cd 973a ab29 5b38
000000d0: 6cb9 4139 fe6d 183a 700d 163a 1ecb 293a
000000e0: 8ac1 da39 db9e 103a 4314 0a3a 29d1 0f3a
000000f0: c06b 6739 55e5 ba39 b8d5 0a3a 2060 d039
1.0846624e-05 0.00041245206 0.00022262163 4.3833625e-05 -1.6550472e-05 0.00049515424 0.00038568105 0.00036026706
0.00052086083 -0.00011930396 0.00035699905 0.00023833549 0.00063820404 0.00037179177 -8.4244384e-05 0.00041973652
0.00040765502 0.00020672506 0.00040301698 0.0005987713 0.00016929592 0.00053947506 0.00023100767 0.00045178342
0.00025583053 0.00012155682 0.000318191 0.0001407312 -5.1722054e-05 0.00023414358 0.00022562985 -2.3976347e-05
-0.000108507316 0.00055460894 -0.00014185312 0.00021064581 0.0004512248 7.1321438e-06 -5.166782e-05 0.00035449807
0.00011865082 9.0856796e-05 1.0322772e-05 0.00043985745 -4.2883934e-05 0.0005730135 0.0003026824 -0.000118946016
0.00026347805 1.2792022e-05 0.0011581746 5.2252475e-05 0.0001847499 0.000581473 0.0005724048 0.0006477105
0.00041724398 0.00055168354 0.00052673015 0.00054861844 0.00022070017 0.0003564755 0.0005296129 0.0003974447

encoder.4.bias f4 [64]
00000000: 5c97 e5b8 cd7b 68b9 e806 18b9 4cdf bdb8
00000010: 250c cbb8 ba81 01b9 3744 41b9 6f89 70b8
00000020: 7189 63b9 5125 20b9 c8c9 69b8 0bbc c1b8
00000030: 8b1b 73b9 06d0 77b8 a80d b9b8 1859 20b9
00000040: 6a7f 20b9 33b8 e5b8 d615 ebb8 3c40 31b9
00000050: fe5b bcb8 e7a2 1bb9 b0f8 7eb8 33e6 a9b8
00000060: a816 18b9 44f3 b7b8 7e8d 22b9 4a62 9cb8
00000070: eb77 61b9 2e7a e9b8 a217 a8b8 bbb6 13b9
00000080: 8d79 0cb9 20b7 81b9 d861 69b9 82f6 13b9
00000090: 0ec8 51b9 515b 9fb9 f262 28b8 8f31 d6b8
000000a0: ee4f d8b8 1cd2 28b9 88b5 1bb9 c76a 0bb9
000000b0: d895 53b8 9799 27b9 e8f8 0fb9 18c8 0236
000000c0: 19de fcb8 8a0a 54b8 1eb9 01ba f1d8 45b8
000000d0: 2612 b4b8 d28c 75b9 b254 19b9 b416 4db9
000000e0: 4df4 c6b8 8a9d 77b9 35ab 81b9 8eec 85b9
000000f0: ea74 18b9 8613 2ab9 b658 05b9 ca7b 4fb9
-0.00010947764 -0.00022171364 -0.00014498422 -9.0538146e-05 -9.6820564e-05 -0.00012350726 -0.00018431326 -5.7348454e-05
-0.00021699608 -0.0001527269 -5.5739452e-05 -9.237983e-05 -0.00023184546 -5.9083126e-05 -8.824031e-05 -0.00015291979
-0.00015306254 -0.00010953881 -0.000112097405 -0.00016903965 -8.9816735e-05 -0.00014842638 -6.0789927e-05 -8.101426e-05
-0.0001450429 -8.771432e-05 -0.00015502234 -7.4569674e-05 -0.00021502345 -0.000111330635 -8.015266e-05 -0.00014087085
-0.00013396722 -0.00024741236 -0.00022257061 -0.00014110844 -0.0002000632 -0.0003039488 -4.014647e-05 -0.00010213546
-0.00010314571 -0.000161 -0.00014849578 -0.0001329585 -5.0445873e-05 -0.00015983578 -0.00013730268 1.948798e-06
-0.00012057665 -5.0554554e-05 -0.0004948544 -4.7170503e-05 -8.586449e-05 -0.0002341748 -0.00014622769 -0.00019558781
-9.48688e-05 -0.00023614443 -0.00024732357 -0.00025543984 -0.00014539403 -0.00016219736 -0.00012716916 -0.00019787173

encoder.4.running_mean f4 [64]
00000000: 6c15 cdbe 0303 95be ad92 88be 8a59 54be
00000010: da50 e8be d31b 8bbe a62a d1be 5fab a6be
00000020: 4903 bfbe f930 30be bd57 76be 4ac5 e4be
00000030: 74fa 35be 19ea e2be 84ed d3be 97b7 95be
00000040: 9cc6 c3be 2bd3 9abe 11c1 b2be d26d a3be
00000050: 041e 46be 1016 e0be be00 5fbe 6e9d d8be
00000060: da3e 86be 89c0 84be 6119 23be 9eaa b6be
00000070: 0d96 efbe 04c4 fcbd 9957 16be 1338 85bd
00000080: b0a0 bfbe 0950 91be 661f d2be ad73 a2be
00000090: f96b 63be fccf 96be b4cb a6be 1496 a5be
000000a0: c30c 55be 31db 94be 44d3 09be bcb6 82be
000000b0: 5f55 bbbe 43b3 e7be 501d 88be 16b5 50be
000000c0: d8c8 aebe 08d9 dabe 3f97 12bf 259f 0bbf
000000d0: db78 89be 6922 07bf 4637 dbbe f763 67be
000000e0: 2c4e 6cbe 496a 5bbe 13f6 a9be 7187 ebbe
000000f0: 49aa adbe 1dce bdbe 0c33 c0be 074e 0fbe
-0.40055406 -0.2910386 -0.26674405 -0.20737281 -0.45374185 -0.27169666 -0.4085285 -0.3255262
-0.37307194 -0.17206182 -0.24056907 -0.4468177 -0.17771322 -0.44319227 -0.41392148 -0.2924163
-0.38237464 -0.30239233 -0.34912923 -0.31919724 -0.19347388 -0.43766832 -0.21777627 -0.4230761
-0.26219827 -0.25928143 -0.1592765 -0.35677046 -0.46794167 -0.123420745 -0.14681853 -0.06504836
-0.37427282 -0.28381374 -0.4103958 -0.3172888 -0.22209157 -0.29455554 -0.32577288 -0.32341063
-0.2080565 -0.2907348 -0.13459498 -0.2553004 -0.3658857 -0.45253953 -0.26584864 -0.20381579
-0.34137607 -0.42743707 -0.57262033 -0.5453971 -0.26850018 -0.5278688 -0.42815608 -0.22596727
-0.23076695 -0.21427263 -0.33195552 -0.4600177 -0.3391898 -0.37071314 -0.37538946 -0.13994609

encoder.4.running_var f4 [64]
00000000: b80b a53f ff89 7c3f 6305 493f f2ba 803f
00000010: 2fd1 8c3f bbb2 863f 46df c13f fea4 5d3f
00000020: fc82 ad3f 998c 073f 0c7a 4c3f 4746 db3f
00000030: 2967 1f3f a4fa c63f ec9b a93f 1071 9d3f
00000040: 3adc 983f b920 523f 28fc 9f3f add4 6c3f
00000050: 6fff 783f e486 dc3f 101b 1d3f cf8f 813f
00000060: d870 233f fad2 673f f87e bd3e d820 523f
00000070: 14ee e13f 4767 5b3f d33c 073f bf56 d53e
00000080: 0db4 233f 0c0b a03f 3f73 c43f f4c2 9f3f
00000090: 83c9 203f f1bf 733f bfe9 7d3f 09dc 903f
000000a0: a166 d43e fd83 233f 4186 303f 5f76 0d3f
000000b0: f24b 893f f7f5 983f 1e73 cc3f c43b ca3f
000000c0: 8681 913f ce00 be3f 980c 1740 6705 c13f
000000d0: 18e3 7f3f b49c 863f ab7d 953f 1c92 3a3f
000000e0: e0d6 8b3f e1d9 a13f 7c0f 093f 6fbf ac3f
000000f0: adca 663f bf10 263f e72c a93f 724c f33e
1.2894201 0.98648065 0.78523844 1.0057051 1.1001338 1.0523294 1.5146263 0.86579883
1.3555598 0.5294891 0.7987373 1.7130822 0.62266785 1.554524 1.3250709 1.2300129
1.1942208 0.8208118 1.2498827 0.9251202 0.9726476 1.7228665 0.6136942 1.0122012
0.6384406 0.905563 0.37010932 0.82081366 1.7650781 0.85704464 0.52827185 0.41667745
0.6394661 1.2503371 1.534767 1.248137 0.6280748 0.95214754 0.99184793 1.1317149
0.4148455 0.63873273 0.68954855 0.55258745 1.0726302 1.1950063 1.5972631 1.5799489
1.1367652 1.4843996 2.3601437 1.5079774 0.9995589 1.0516572 1.1678976 0.72879195
1.092495 1.2644616 0.5353925 1.3495921 0.9015301 0.648693 1.3216828 0.4751926

fc_mu.weight f4 [2, 3136]
00000000: 36f1 cf39 4a32 c539 9f24 b0b9 f276 d739
00000010: 7cec d9b9 d61c 0bba 92b7 9b39 7d48 5eba
00000020: 4136 85ba 9b05 d4ba 2355 fa39 e40e 8d3a
00000030: 3993 2ab9 e2b6 84b9 4336 acb9 071e a239
00000040: 9962 acba b587 f339 07d5 d8b7 4fb8 aa39
00000050: 2870 ba3a 799b 98b9 cacc d1b9 57b1 0d3a
00000060: 6b3d 9fba 871a acba 7faf 1c3a 137d 4d3a
00000070: 51b7 feb9 6cfd 87b9 3072 e03a bcc9 5eba
00000080: c83a 3d3a eb7e 7039 272c 16b9 024a 32b8
00000090: eb77 fb39 0ce2 e33a 5f85 bcb8 b84f f238
000000a0: 0cb4 27ba aab5 7039 7e2d 4aba 51e1 fa38
000000b0: 76d1 15ba 7c83 133a 40ec 9938 899b aa38
000000c0: 1e99 48b9 6263 8939 9b79 be37 7f1f d339
000000d0: e7e0 f939 703c df39 43ab a4b9 646e ef39
000000e0: 32dd 7e3a b8de 303a 00a5 8f39 cc20 2dba
000000f0: b8d8 a6ba 728e 0539 509a 6038 0457 1c3a
00000100: 6baa 843a f469 e3b7 ee6b 6fb9 5940 50ba
00000110: eeee dcba de73 dd39 d9c4 6a3a 3b46 3039
00000120: fc62 c6b9 c466 6838 f29f 883a 2ab4 5539
00000130: 012c 94ba 49dd a539 b4fb 2439 c91d 05ba
00000140: 0319 b439 f681 4638 bbf7 55ba 8316 abba
00000150: b400 6539 1c6e 26b8 7693 24bb c7f0 d5ba
00000160: a125 8ab9 cb16 50b9 a375 beba 285e 0b3a
00000170: 900c 3339 7740 e7ba ff8c 94ba 9cfb 7339
00000180: 6437 db39 53a8 4c38 83ef 54ba 58b8 c2b9
00000190: 2b5d 4638 9c55 bbb9 6081 4f39 a5f2 dc39
000001a0: b476 24b9 d8be 6db8 fd7c bf39 884d 86b8
000001b0: 94ce 39ba 8202 0fbb 9414 9eba 2d43 56ba
000001c0: 2765 a139 a6a6 9039 d9c9 f439 d9e2 75b9
000001d0: 86e9 3eba 8590 c53a 5144 ac3a 7c45 9739
000001e0: 6845 c439 b26d c939 afe6 fcb9 2d17 433a
000001f0: 99ac 613a 625b 7838 9a05 9db9 2b42 75ba
00000200: 4b17 26ba e6f4 04ba 836f 0fba 8b92 d038
00000210: a8c9 a5b9 2742 36b9 0dda 8ab9 64a0 073a
00000220: d7b1 20ba 9520 71b9 946f f2b9 cf5a e239
00000230: a0be 83ba f794 d438 e573 303a e64e 1b3b
00000240: fc76 95ba 35e8 8f39 d08d 1139 f10e 8fb8
00000250: aaab b7b9 fb65 19ba 686e f5b9 fd63 0039
00000260: caf4 cab9 e1d4 15b9 2ac5 653a f7e1 f4b9
00000270: bdd0 fb39 310c 5b3a 570e b138 4646 28b9
00000280: 4ec0 343a 367b 89b7 369d 9739 db27 2bba
00000290: 605a 2cb9 370b a438 20e6 2bba 651e d239
000002a0: 10c0 04ba 0b03 48ba fc28 eeb8 e07f 53ba
000002b0: 857b 02ba 1489 5b38 8b54 49ba 87d9 3cba
000002c0: 556d 8739 a89e 483a f5a0 aeba 8937 e938
000002d0: 89c7 4d3a e823 d439 3e7a a739 1c8c 9d3a
000002e0: 3b7f f33a 3257 fe39 dd31 153a 8486 6fba
000002f0: 800b 6138 a80a 2539 00d6 8639 baf9 97b8
00000300: 2f19 72ba cddb 32b8 65fb 81ba 6e4e b939
00000310: cc48 9f39 3e66 a639 3ca1 08b9 e447 aab8
00000320: b7f9 91b9 6114 9f38 b611 c7b9 399f a9b7
00000330: 6367 e638 f8ad 8db9 9c89 8fba 9082 a6ba
00000340: b53b abba 2387 2e39 a7f2 0eba 3fef 053a
00000350: fd85 b0b9 e0bc dd3a 1796 beb8 066b e136
00000360: e58d 05ba 1e59 b9b7 1558 263a a00d be39
00000370: d6da 8a3a 0c6a 5fba c6fe 8339 bdcf a239
00000380: abed 97b9 0ff6 d9b9 c3f4 f8b9 868b d0b8
00000390: 56b7 1c3a 688a f039 6232 b139 3d3d 0ab9
000003a0: aee4 c0b9 892b 5bba 3d51 1cbb ef0b 0639
000003b0: b0be d238 7185 23b7 d995 d539 bdb4 d739
000003c0: 1a64 33ba 9484 713a 45a6 de3a 8cbc 1a3a
000003d0: a9f8 a5b8 c6a4 4439 0b95 c539 6ce9 803a
000003e0: 322b 2eba 14b4 25b9 c1b7 8037 3fe5 4839
000003f0: b619 8d38 87df 3836 2968 0dba 5167 80b9
0.00039661833 0.00037612236 -0.0003359662 0.00041096617 -0.0004156566 -0.0005306726 0.00029700674 -0.00084794295
-0.0010163264 -0.0016175987 0.00047747148 0.0010761884 -0.00016267308 -0.0002531326 -0.00032846825 0.0003092142
-0.0013151943 0.0004644968 -2.5848405e-05 0.00032562247 0.0014224099 -0.00029107535 -0.00040016166 0.0005405149
-0.0012149041 -0.0013130464 0.00059770787 0.0007838767 -0.00048583237 -0.0002593802 0.0017123874 -0.00084986887
0.0007218537 0.00022935464 -0.00014321563 -4.2507432e-05 0.00047963797 0.0017386093 -8.989381e-05 0.00011554308
-0.00063973735 0.00022955859 -0.00077124673 0.000119628974 -0.0005715111 0.00056271977 7.3396135e-05 8.1352024e-05
-0.00019130527 0.00026204722 2.2706392e-05 0.00040268523 0.00047660546 0.00042578904 -0.00031408118 0.0004566788
0.0009722292 0.0006747055 0.0002739802 -0.00066043134 -0.0012729382 0.00012736933 5.3549476e-05 0.0005963894
0.0010121589 -2.7109847e-05 -0.00022833023 -0.0007944159 -0.0016855875 0.00042238733 0.0008955724 0.00016810831
-0.00037839252 5.540882e-05 0.0010423644 0.0002038038 -0.0011304618 0.00031636123 0.00015734026 -0.00050779857
0.0003435091 4.7327914e-05 -0.000816222 -0.0013052974 0.00021839404 -3.968003e-05 -0.0025112308 -0.0016322368
-0.00026349447 -0.00019844917 -0.0014530908 0.00053164596 0.0001707545 -0.0017643113 -0.0011333524 0.00023268018
0.00041812204 4.8794154e-05 -0.0008122848 -0.0003713991 4.7293648e-05 -0.00035731203 0.00019789254 0.00042142454
-0.00015684479 -5.668294e-05 0.00036523482 -6.404059e-05 -0.00070879725 -0.0021821563 -0.0012060576 -0.0008173462
0.00030783677 0.00027589983 0.00046689695 -0.00023449528 -0.00072827225 0.0015072977 0.0013142918 0.00028852734
0.00037435745 0.00038419437 -0.00048237058 0.0007442113 0.0008608788 5.9212914e-05 -0.00029949547 -0.0009355868
-0.00063358684 -0.0005071893 -0.00054716336 9.945509e-05 -0.00031621498 -0.00017381516 -0.00026483872 0.00051737414
-0.0006130016 -0.00022995689 -0.0004624097 0.00043173737 -0.0010051318 0.000101366946 0.0006731137 0.002369815
-0.0011403258 0.00027448093 0.00013881107 -6.8215544e-05 -0.0003503238 -0.0005851683 -0.000468123 0.0001224428
-0.00038710824 -0.00014289051 0.00087650365 -0.00046707664 0.00048029973 0.00083560037 8.442689e-05 -0.00016047907
0.0006895111 -1.6389047e-05 0.00028918096 -0.0006529071 -0.00016436866 7.822218e-05 -0.00065574236 0.00040076967
-0.000506402 -0.0007629848 -0.00011356358 -0.0008068066 -0.0004977512 5.2341333e-05 -0.00076801394 -0.0007204045
0.00025830665 0.0007653036 -0.0013323115 0.0001112065 0.00078498624 0.00040462543 0.000319438 0.0012019905
0.0018577346 0.0004851162 0.0005691329 -0.0009137171 5.365489e-05 0.00015739596 0.00025717914 -7.246756e-05
-0.000923532 -4.2643213e-05 -0.000991684 0.00035344384 0.0003038108 0.00031738164 -0.00013030035 -8.119622e-05
-0.00027842607 7.585507e-05 -0.00037969433 -2.0220514e-05 0.00010986512 -0.00027023233 -0.0010951045 -0.0012703706
-0.0013064059 0.00016644275 -0.0005453028 0.0005109198 -0.00033669165 0.0016917251 -9.0878624e-05 6.7179817e-06
-0.00050946913 -2.2095217e-05 0.00063455227 0.00036249775 0.0010593783 -0.0008522577 0.00025176088 0.00031053825
-0.0002897804 -0.00041572793 -0.00047484608 -9.944201e-05 0.0005978247 0.00045879488 0.0003379761 -0.00013183519
-0.00036791473 -0.0008360674 -0.0023852133 0.00012783681 0.00010049099 -9.746626e-06 0.0004073817 0.00041142656
-0.00068432244 0.0009213176 0.0016986808 0.00059027295 -7.91413e-05 0.000187534 0.00037685814 0.000983519
-0.000664401 -0.0001580271 1.5344356e-05 0.00019158887 6.728193e-05 2.7548247e-06 -0.0005394244 -0.0002449104

fc_mu.bias f4 [2]
00000000: 3d70 72b6 668d 3bb6
-3.6126141e-06 -2.7947476e-06

fc_var.weight f4 [2, 3136]
00000000: 8045 8bb9 2466 4537 29d6 b6ba 9957 95b8
00000010: f58f 1f38 4eeb 63ba e720 3039 4660 e336
00000020: 208e 23ba 3bae 4fb8 921d ab39 a95c c339
00000030: ca8e b13a 77a5 5a39 1aa6 f1b8 79e3 93b8
00000040: 5bfd f2b7 73e7 6639 ec83 183a 5f7a de39
00000050: a2e9 3c3a badf 4438 962f 78b8 13aa b738
00000060: 961c ff39 c9a1 a739 233c 4a39 9899 27b9
00000070: 26db 14ba 1e3d 10ba 63ec 883a 552c a639
00000080: 7288 fcb8 474f fa39 d474 d9b9 60ec 10ba
00000090: 7fb8 f7b9 e6a7 3f3a 335e 3c39 eaa2 aa39
000000a0: 08fd 473a bacf 0239 81ce 7ab9 cc5c 13ba
000000b0: 7a3e 7d38 f35f 7c3a bcbc 363a 5f5e 463a
000000c0: 8010 6fb9 b576 7bba a914 af38 b6fb 1fba
000000d0: 01d6 5d3a 40f5 f3b9 3bc8 1eba 9907 28ba
000000e0: 439d d3b9 e5c3 82ba 8974 45b9 f52e 9439
000000f0: ab2a c4b8 b843 a8b9 791d 0fba fdb7 7eba
00000100: 7716 1839 c906 f939 40a4 0739 e617 b239
00000110: 4dbe 903a 5ba2 163a 14f5 84ba 1e81 81b8
00000120: ce95 703a 75ba 0eb5 f306 0d39 fc97 c838
00000130: 6468 303a 632b 1338 4f31 4eb8 6f44 743a
00000140: a277 f939 21fe 2639 8454 de39 e33c 913a
00000150: 3c94 2ab9 56b6 f339 4475 d73a 0dd5 a739
00000160: 5fc9 59b8 8d3a 113a fa46 c539 28be 86b9
00000170: 2115 16b9 9dcd e73a c4d6 7639 1eaf 4c39
00000180: b565 8c3a 372d f338 5681 8c38 672b 43b9
00000190: 23e5 39b9 4d20 10ba 0f35 28ba 23c2 4dba
000001a0: 37b9 fab7 c8c6 0b36 a389 01ba 99da bcb8
000001b0: bde4 d739 2cc0 64b7 c8e6 9c3a 0312 183a
000001c0: cf68 edb9 bf2b 21b7 7554 883a 4b4b 3939
000001d0: 2ad0 7339 4714 4637 7fe1 a039 e64f dfb9
000001e0: 4767 31ba a838 c638 0a87 bc39 3506 d338
000001f0: 4973 2c39 5391 863a 8c44 56ba cff2 12ba
00000200: 8cd1 c739 7ab8 c839 ae4e 4939 06bf 9e39
00000210: 44c5 f539 dadf 5c39 2956 0a3a 7e3e 3e3a
00000220: 6338 3039 4b53 c4b7 3c07 043a 2464 193a
00000230: a6ce 9539 1d7d 01ba 643b f437 c412 e339
00000240: 5032 6c3a de2e ea39 2d76 3dba 517e 71ba
00000250: bf48 383a a217 0db9 77c4 87b9 6db5 d0b9
00000260: 0e45 7339 2d11 56ba 2e38 2438 177c 0e3a
00000270: 5712 993a bfd7 363a 20be b339 830c c53a
00000280: 3718 8539 7101 4cba c62a 4e3a 2a3e f539
00000290: 1ca6 3039 4616 49b9 25c8 3f3a f251 07ba
000002a0: cc4d 11ba 46de 0439 a9fd 953a ff46 eb39
000002b0: 59f6 a039 c810 783a 9b32 bbb9 eadc 3db9
000002c0: c24a 7b39 96de 34b9 4454 8439 5268 0a39
000002d0: 2cd2 903a 43cb e3b9 99ad 63ba 850a ca3a
000002e0: 494e 5f3a e2c5 5339 3c90 1f3a 0934 1e3a
000002f0: ba30 013a d48f 4fba 1d8c b4b9 8c9f 79b9
00000300: fb74 3fb9 7fd3 27ba 86e2 70ba 5c83 78ba
00000310: c953 16ba 2fab 26ba 84f7 1bba 7c16 b7b8
00000320: bc63 78b9 0ed5 18ba ab15 3dba 3707 46b9
00000330: 0bb0 00ba d2cc 44b9 bb33 3c3a 94c5 243a
00000340: f6fc b23a 817c 56ba a80d 9f38 9970 f7b9
00000350: adba 323a b31b 8739 088e 80b8 49b0 6b39
00000360: 5c74 8d3a 9e9e 0dba 92fc a2b8 55c4 3c3a
00000370: 88c1 043a bddf 0239 52a0 be39 2998 403a
00000380: 66f1 0eba 50ef eeb8 bf7d 8b3a e575 103a
00000390: 069c 3239 38b9 8839 c013 863a 96e1 4cba
000003a0: c087 363a c1fe ba3a 0d6c 183a 5d6e c039
000003b0: 07b7 d43a 611e 4539 1f61 53ba 44ab 53ba
000003c0: 1e53 8439 9b3f 9039 c048 d739 4521 5739
000003d0: f7f4 05ba b616 57ba 2dad 82b8 bc26 9939
000003e0: 9b60 b0b9 8be6 3bba 1232 a737 e561 1bba
000003f0: 6ca1 25ba 276f c7b9 6b20 0eba 902e a43a
-0.00026563928 1.17658965e-05 -0.0013949323 -7.12119e-05 3.8042625e-05 -0.0008694426 0.00016796925 6.776335e-06
-0.0006239135 -4.951491e-05 0.00032637693 0.00037262336 0.0013546583 0.0002085174 -0.00011522714 -7.051876e-05
-2.8966626e-05 0.00022020731 0.0005817998 0.00042434313 0.0007206445 4.6938403e-05 -5.9172125e-05 8.757799e-05
0.00048658688 0.00031973262 0.00019286624 -0.00015983579 -0.00056784076 -0.0005502271 0.0010446425 0.00031695017
-0.00012041711 0.00047742782 -0.0004147651 -0.00055283867 -0.00047248972 0.00073110906 0.00017964169 0.00032546307
0.0007628952 0.0001247515 -0.00023918787 -0.0005621433 6.0378086e-05 0.00096273347 0.00069708726 0.0007567163
-0.00022798963 -0.0009592579 8.3484985e-05 -0.00061028765 0.000846237 -0.00046531297 -0.00060570583 -0.00064098235
-0.00040362225 -0.0009976594 -0.00018830797 0.00028263745 -9.353956e-05 -0.0003209391 -0.0005459409 -0.00097167474
0.00014504218 0.00047498036 0.00012935791 0.0003396861 0.0011043042 0.0005746239 -0.001014384 -6.175249e-05
0.0009177596 -5.3170453e-07 0.00013449397 9.5650525e-05 0.00067294226 3.5087938e-05 -4.916015e-05 0.0009318059
0.00047582114 0.00015925664 0.0004240611 0.0011080768 -0.00016267685 0.00046484423 0.0016438146 0.00032011457
-5.1924373e-05 0.0005540036 0.0003762765 -0.0002570015 -0.00014312986 0.0017685179 0.00023540395 0.00019520192
0.0010711463 0.00011595565 6.699811e-05 -0.00018612818 -0.00017728335 -0.0005497977 -0.0006416598 -0.0007849058
-2.988857e-05 2.082832e-06 -0.0004941469 -9.0052556e-05 0.0004117842 -1.36346025e-05 0.0011970634 0.0005801024
-0.0004528225 -9.606533e-06 0.0010401147 0.00017671024 0.00023251833 1.1806441e-05 0.00030685586 -0.00042593403
-0.00067674037 9.451929e-05 0.00035958766 0.0001006242 0.00016446145 0.0010266699 -0.00081736664 -0.00056056393
0.00038112362 0.00038284418 0.00019198164 0.00030278432 0.00046877016 0.00021064226 0.0005277121 0.0007257237
0.00016805674 -2.3403807e-05 0.00050364784 0.0005851409 0.0002857346 -0.0004939603 2.9114723e-05 0.00043310795
0.00090101827 0.00044666877 -0.00072273874 -0.0009212243 0.0007029883 -0.00013455612 -0.00025895584 -0.00039808024
0.00023200011 -0.00081660115 3.915297e-05 0.0005435361 0.0011678439 0.00069748977 0.00034283195 0.0015033636
0.00025385778 -0.0007782197 0.000786465 0.00046776357 0.00016846549 -0.00019177151 0.00073158956 -0.0005162052
-0.00055429037 0.00012671304 0.0011443394 0.0004487559 0.0003070112 0.000946295 -0.00035705123 -0.00018106741
0.00023965075 -0.00017249057 0.00025239785 0.00013199568 0.0011048964 -0.00043448256 -0.0008685231 0.0015414512
0.00085184403 0.00020196245 0.0006086861 0.00060349755 0.00049282203 -0.00079178554 -0.00034436668 -0.00023805926
-0.00018258758 -0.000640206 -0.0009189028 -0.0009480023 -0.0005734531 -0.0006357906 -0.00059496635 -8.730308e-05
-0.00023688277 -0.00058300875 -0.00072130066 -0.00018885439 -0.0004909045 -0.00018768318 0.00071793393 0.0006285545
0.001365571 -0.00081820047 7.5842545e-05 -0.00047195403 0.0006817978 0.00025769844 -6.129971e-05 0.00022477018
0.0010792124 -0.0005402359 -7.771807e-05 0.00072008866 0.0005064239 0.00012481115 0.00036359072 0.00073468924
-0.0005452841 -0.000113933 0.0010642334 0.0005510732 0.00017033526 0.0002607794 0.0010229275 -0.00078155973
0.00069629773 0.0014266596 0.00058144407 0.0003670332 0.0016228863 0.00018798701 -0.00080634834 -0.0008074532
0.0002523893 0.0002751321 0.000410622 0.00020516392 -0.000511005 -0.00082049833 -6.2311396e-05 0.00029211293
-0.00033641313 -0.00071678375 1.9931267e-05 -0.0005927368 -0.0006318304 -0.00038039053 -0.0005421701 0.0012526084

fc_var.bias f4 [2]
00000000: 667a 0838 f2ce 2738
3.253892e-05 4.0008636e-05

decoder_input.weight f4 [3136, 2]
00000000: 3dda 4b3f d72d 1a3f 18bb 35bf 5476 2ebf
00000010: 007a 41be b51e 97bd 811e d63e 4611 453d
00000020: fd41 c63e 399b 2fbd a685 533e c36b 2d3d
00000030: 830c 1ebf 173a 823e 184f 6b3e 5153 5bbf
00000040: 7e50 adbd 265c 033e c607 03be a2d6 e53d
00000050: a9c0 123d 4c08 073e 3c0d b83d f2d0 ec3c
00000060: edec 993e 76ea 86be 559b ed3e b2eb 52be
00000070: 79aa 84be e2f4 4abe f598 b2bd 1c6f 03be
00000080: 83cf 5b3d 691c 15be da2c 993d c662 d4bd
00000090: c912 17be a82f 013e 07a7 85be 2b79 a63d
000000a0: 6563 ae3e 8b90 c33d dbb4 42be c882 f23e
000000b0: cb42 17bc d13b 533e 7a7d b9bc 20a8 b13c
000000c0: bedb 9bbd 98c1 2bbe 3226 0e3e 4863 06bd
000000d0: e979 bcbc 1ffb 0bbe 633d 66bd bc92 1c3e
000000e0: 8052 b13e e40c 573f f47d 9b3d 8a4f 4ebd
000000f0: 4545 8a3d e33b 6e3c 10ab 06be d813 37be
00000100: bcba dfbc c7a2 673d fb05 6bbe 9cee ed3d
00000110: 5308 80bd 38f1 e8be acd7 68bf 473f 043f
00000120: fe50 a33d 4546 19be cfde 923d 7e34 cabd
00000130: eb67 0dbd d7f4 1c3e d1a4 133e 1380 b23d
00000140: ceb4 723d b39a 6d3e e450 c23e 0849 8abe
00000150: 6630 e93e 82c0 49bf 7316 46be ecbd e43c
00000160: 608c f93c 772b 28be e405 4dbd c58e 083d
00000170: 29f7 f4bd 0401 483e 7acd d13c ac8c 9c3c
00000180: 5c5c e03e 1085 2f3f 9a2c 97be 2077 bcbe
00000190: 273d 1bbf d53f 163e 4070 ffba 1210 aabe
000001a0: 5ded 46bd 2e16 3dbe 00e9 94be 26a2 89bd
000001b0: 3c68 c0bc 06bc 8d3c 00b2 9fbe 5cba 013f
000001c0: fd8c 243f fd4c 9d3f 5c02 cebe e2da 683e
000001d0: 3018 ef3e 9283 8abe c263 dabc a268 54be
000001e0: cf2b 5abc 8089 12be f175 84bd 1c71 51bd
000001f0: cd7f 3abc f238 22be 487d 1d3f ac6c 903e
00000200: f42d d7bd 1797 8c3a 6939 b1bd a21f 3bbe
00000210: 6092 d43d 94a4 be3d 2a5e 3bbd d038 da3d
00000220: f320 03be 5b53 cb3d dda2 4abd d598 95bd
00000230: 9f31 433f f17f cb3e 021e 80bd ed60 56bd
00000240: b460 063e c52a 81be adfc 04be e31e 4d3e
00000250: fc8d 40bd 3c29 363e ffc2 9dbe c687 533e
00000260: be17 43be 54a1 f0bc a930 d33e d739 08bf
00000270: ca4c ee3d b4c0 803e 32a3 fabc 96cd 2abe
00000280: 10b4 283d f30f 4b3e 1ec9 8a3d 7902 153e
00000290: 706c 113e f59d 743d 0645 313e 387d 90be
000002a0: 4b23 183e a513 1cbf 6d29 afbd 758a 8dbd
000002b0: d84c 123d 51a1 cf3d 005f 4fbe c429 42be
000002c0: f2fd b5bc 420a 7e3c d457 0d3e c992 163c
000002d0: 615d 80bd c768 f8bd d3c7 823e a4fd 4dbf
000002e0: 0c14 803e 8379 4f3d 47a0 18bd 131f aebd
000002f0: b45d 493c 001c b1bd d355 39bd a7e5 0e3e
00000300: 6366 59bd 1563 07be 459c a03d e397 1d3c
00000310: 38dd 863e 79bd 46bf 5902 fa3e 81d4 d63e
00000320: 4093 86bc 38e4 ed3d a3d4 47bd 7bec fabd
00000330: 3ae3 afbe 3766 a13d a78d e83e 813e 9e3e
00000340: 98b7 ecbd 43d8 06bf 225d b63e fb4e 543f
00000350: 1c9d de3e dea6 203e dc29 d63d b8f4 283e
00000360: f7b5 53be 2e91 c0bc 2323 7a3d 6731 d9bd
00000370: 1606 3cbe 1ebb 943e 0d1e a2be d278 03be
00000380: 91e8 aabd 710b 693f c486 273d 0457 85bd
00000390: 3416 8c3d 84a7 103e da71 40be f312 e6bd
000003a0: d62e a8bd 58d8 18be 8493 06be c89c 44bd
000003b0: 2ccd 9abe 66d3 0cbe 8706 d7be 09be 1abb
000003c0: ae8f 0d3d 26b5 0bbe db53 cfbd 58dc 93bd
000003d0: a403 a13d 0287 203e bd7f 27be a1d7 d53d
000003e0: 97dc e13c 3c0a 403d fb00 0bbe 0e67 1c3e
000003f0: e31d 2bbe 442c b8be 3011 063e d569 80bd
0.7962988 0.60226196 -0.7098861 -0.68149304 -0.18894196 -0.07378904 0.41820148 0.048112176
0.3872222 -0.04287264 0.20656452 0.042339098 -0.6173784 0.25434944 0.2297939 -0.85674006
-0.08462618 0.1282812 -0.12795934 0.112225786 0.035828266 0.13186759 0.08986899 0.028908227
0.30063573 -0.26350754 0.4640757 -0.20597723 -0.2591131 -0.19819978 -0.087205805 -0.12835354
0.053664695 -0.14561619 0.07479258 -0.10370402 -0.1475326 0.12615836 -0.26103994 0.0812858
0.34060207 0.09549054 -0.19014303 0.47365403 -0.009232233 0.20628287 -0.02264284 0.021686614
-0.07610272 -0.16773069 0.13881758 -0.032809526 -0.02300735 -0.13670014 -0.056210887 0.1529035
0.34633255 0.84004045 0.07592383 -0.050368823 0.06751493 0.014540645 -0.13151193 -0.17878664
-0.027310722 0.05655172 -0.229515 0.11617777 -0.06251588 -0.45496535 -0.9095409 0.51659054
0.079744324 -0.14968212 0.071714036 -0.09873293 -0.034522932 0.15327774 0.14418341 0.087158345
0.05925446 0.23203544 0.3795234 -0.27008843 0.45544738 -0.7880937 -0.19344501 0.027922593
0.030462444 -0.1642283 -0.050054446 0.03333928 -0.119612046 0.19531637 0.025610674 0.019110046
0.43820465 0.6856241 -0.29526216 -0.36809635 -0.60640186 0.14672787 -0.0019488409 -0.33215386
-0.04856621 -0.18465492 -0.29084015 -0.067203805 -0.023487203 0.01730157 -0.3119049 0.50674987
0.6427763 1.228912 -0.40236175 0.22739747 0.4669814 -0.27053505 -0.026658896 -0.20743039
-0.013316109 -0.14310265 -0.06467808 -0.05113326 -0.011383009 -0.15842035 0.6151929 0.2820791
-0.10506812 0.0010726181 -0.08653528 -0.18273786 0.10379481 0.093087345 -0.0457441 0.106553674
-0.12805538 0.09928008 -0.049471725 -0.07304541 0.7624759 0.3974605 -0.062557235 -0.05233853
0.13122827 -0.25227943 -0.12987013 0.20031314 -0.047010407 0.17789167 -0.30812833 0.20657262
-0.19052026 -0.029373802 0.41248062 -0.53213257 0.1163574 0.2514702 -0.030595396 -0.16679987
0.041187346 0.19830303 0.06776641 0.14551724 0.14201522 0.059720952 0.17311487 -0.28220534
0.14857213 -0.60967475 -0.08552823 -0.06911174 0.035717815 0.101381905 -0.20251083 -0.18961245
-0.022215817 0.015505375 0.13803035 0.00919027 -0.062678106 -0.1212936 0.2554308 -0.8046515
0.25015295 0.050652992 -0.037262227 -0.08502021 0.012290407 -0.08647919 -0.045247864 0.13954793
-0.05307616 -0.1322139 0.07842306 0.009618732 0.26340652 -0.7763286 0.48829916 0.41959003
-0.016427636 0.11615795 -0.04878677 -0.12252136 -0.34353048 0.07880824 0.45420572 0.30907062
-0.11558455 -0.5267374 0.3561793 0.82933015 0.4347924 0.15688655 0.10457203 0.16499603
-0.20674883 -0.023506727 0.061068665 -0.10605126 -0.18361697 0.2904901 -0.31663552 -0.12839058
-0.0834514 0.91033083 0.040900007 -0.065107375 0.068401724 0.14126402 -0.18793431 -0.11234083
-0.08212058 -0.14926279 -0.1314221 -0.04800108 -0.3023466 -0.13752517 -0.41997167 -0.0023611805
0.03456085 -0.13643321 -0.10123416 -0.072197616 0.078620225 0.15676501 -0.16357322 0.104415186
0.027571006 0.04688476 -0.13574593 0.15273687 -0.1671062 -0.35971272 0.13092494 -0.06270186
